Neural_functional/Model_weights/decent_conv_net.pth (torch, 469048 bytes, 9 tensors)

conv1.weight f4 [16, 1, 85, 85]
00000000: 3ae8 d6bc e8b5 d33d c91b de3d 81a8 babd
00000010: 8d3b 1ebe d402 5fbe 913d e4ba da11 89bd
00000020: 883d f13c 0fb3 a43d 8c74 9dbd 0dff 99bb
00000030: 7809 f33d f1e7 37be 43e2 b4bd 2332 62be
00000040: 7dcb 3bbe 74a6 e73b 5113 833c e9a1 3b3c
00000050: c59b e73a 9e13 e73d 5c6b 3b3d 5b58 2fbd
00000060: a443 dd3d f22b fa3d 2170 b43d f270 d1bc
00000070: 896d 2c3e ce32 cd3b 8bf7 c6bc 4dab 643d
00000080: 51ec 06be 8f0c 8abd 4a99 c73d c7d6 01be
00000090: f96f d3bd 20e2 a8bd 1ff8 493e 8d82 abbc
000000a0: 3056 533e d479 1a3e f7c1 fe3d 5b26 823e
000000b0: b470 373e 4392 3d3e 65a7 543e 0a32 dfbd
000000c0: a436 b3bd c4a0 bfbd 1b14 9d3c 7396 9abc
000000d0: 1acd a3bc 60c8 f93d 2624 f13c 4e64 fdbd
000000e0: d6de 1d3d e51a c0bd 1efc 1e3d b11f 7c3d
000000f0: 2622 033c e4f9 88bc 9069 04be 75a3 b0ba
00000100: 948a 99bd 48d7 93bd cfb9 a13d 5e5f f63d
00000110: cc6e 4c3e bf2a ddbd f518 b7bd aadd 16be
00000120: 6f36 493d a5b5 b73c a31a 39bd 2ea7 cabd
00000130: 4ff9 dcbd be90 47be 56a0 4dbd 9450 36be
00000140: 8513 90bd ad29 3dbe fdc6 5ebb e59f 053e
00000150: f61c 5fbc ff7a 3dbc 2307 11bd 5fd9 843d
00000160: d634 55be 19c3 33be 25ce d73d fda5 25be
00000170: fbd5 42bd e3c7 7dbb e3e3 f03d bbcc 6b3e
00000180: 83be 70bd 1f8f 8dbd c01f 81bc 19b4 1fbe
00000190: e474 39be 93ab 4bbe c920 13bb a61a 0c3e
000001a0: 0b33 cabd aa84 0e3e d5a7 ba3b 86bb 3fbd
000001b0: 0f44 113d cd8e c73d c8b6 593d 6b64 c43d
000001c0: 2fc9 353d cb17 fe3d 55d3 8bbd c2ca 583e
000001d0: b83c a23d 79f6 493d fd8f b1bd d9f8 0dbe
000001e0: 7e39 ab3d 2f55 96bd b527 82bc ecce 863c
000001f0: 837f 9ebc 8df2 653e a8c4 9f3e b70b a63e
00000200: 6f98 253e ca4b 953e ba12 863e 1dbf 57bc
00000210: 7ecb 7d3d e69a 3ebe 3de7 0fbe ec39 d4bd
00000220: a0f7 3bbe 3d18 483d 1045 533e c6d8 0dbe
00000230: de31 793d 9f82 1a3d cfa5 bcbb 1d8b 973c
00000240: b7c1 7bbc db20 663e c01c f2bc ec95 08bd
00000250: 9956 d3bd a32b a0bd 1269 7fbd 5f02 ed3b
00000260: f1e7 123e 39bf a93d 2340 ffbd 00ce 15be
00000270: ae28 9bbd bf59 fdbd da35 16bd 5482 a83d
00000280: 9ca7 e43c 4b9f cabd b4a6 4fbd d460 18be
00000290: 7719 41bc 116a 95bd 9a41 a2bd 5582 423c
000002a0: fd0a d23c e210 b4bd 8412 b3bc 7cdd ca3d
000002b0: 04bc e0bb b76b 023d 1113 a4bd 5f2a 10be
000002c0: 68b9 083d 8c18 543d aa1e 413e 2e90 0b3e
000002d0: 5c7f adbb 1d1a 0d3b ac80 d43c 3087 e9bd
000002e0: 308e 64be 3b01 e5bd 5938 a1bd 1fda dc3c
000002f0: 1c14 80bd 206f c73b 9c97 763d 8050 213e
00000300: 5779 d43c 0d45 663d 5f60 8d3d f573 ae3d
00000310: be97 d03c 8a70 d13d b9bc fe3c 6c43 90bb
00000320: a3f4 763d ae1e 1dbe 5c81 4fbd fe48 8fbc
00000330: c2c7 68bd 52f8 223c 1a08 79bd 4ea6 42bd
00000340: 4b5f 30bd 7f69 e6bd 9420 fb3d 4df1 4d3e
00000350: 2479 943e dc9a 543d e7e0 9e3e c0f1 6c3e
00000360: 9f61 153e f8fa 03bd 28e6 4cbd fcd9 c13d
00000370: 5015 5abe 921b a9be bdc3 95bd da92 08be
00000380: 26d1 47bd fa6d 29be bb04 30be 3f76 05be
00000390: 1c34 02be 4c8e d53d 2363 e2bc f4ac 363e
000003a0: 0d2f 70bd 0b57 65bd a0b0 1abe fd7a 39be
000003b0: 41b1 cb3a 36de 883e 676d 283d 89ca 5abe
000003c0: 9564 1bbe 811a 07be 9eef 993d 4e0d a73d
000003d0: d8fb b1bc 030f 10bd 2357 b83d c873 8a3b
000003e0: 6d0f 12bd 3bd0 8dbd 5682 72be 055d b1bd
000003f0: 2e99 ccbd 2dd9 a83d ebe1 95bd 3405 bbbc
-0.026233781 0.1033743 0.10845143 -0.09114171 -0.15452404 -0.21778423 -0.0017413368 -0.06692858
0.029448286 0.08041965 -0.07688245 -0.004699594 0.118670404 -0.17959572 -0.088322185 -0.22089438
-0.18339343 0.0070694033 0.016000422 0.011452177 0.0017670324 0.112830386 0.045756683 -0.04280887
0.10803917 0.12215413 0.088104494 -0.025566552 0.1683866 0.00626216 -0.02428796 0.055827428
-0.13176085 -0.067406766 0.097460344 -0.12679587 -0.103240915 -0.08246255 0.19723557 -0.020936275
0.20638347 0.15085536 0.124393396 0.25419888 0.17914087 0.18512826 0.20766981 -0.10898216
-0.08750656 -0.093568355 0.019174626 -0.018870568 -0.019995261 0.121964216 0.029436182 -0.12372647
0.03854259 -0.0938013 0.038814656 0.06155366 0.008003747 -0.01672072 -0.12930894 -0.0013476448
-0.07497135 -0.07218796 0.07896768 0.120299086 0.1996414 -0.10799169 -0.08940307 -0.14732996
0.049124178 0.022425482 -0.04519142 -0.09895168 -0.10789739 -0.19488809 -0.050201736 -0.17804176
-0.07034973 -0.1847293 -0.0033993118 0.13049276 -0.013617745 -0.011564969 -0.035407197 0.06486773
-0.20820937 -0.17554893 0.10537366 -0.16176601 -0.04756735 -0.0038723878 0.11762216 0.23027317
-0.058775436 -0.06912064 -0.01576221 -0.15596046 -0.18110996 -0.19889669 -0.0022449961 0.1368204
-0.09873017 0.13917795 0.0056962767 -0.046809696 0.035465296 0.09744034 0.05315283 0.09589466
0.044381317 0.12406882 -0.06827418 0.21171096 0.079217374 0.04930732 -0.08670042 -0.13864459
0.08360575 -0.07340466 -0.015888074 0.01645609 -0.019347912 0.22455807 0.31204724 0.32430813
0.1617143 0.29159385 0.26186162 -0.013168124 0.061961643 -0.18613777 -0.14053054 -0.1036261
-0.1835618 0.04885124 0.20631814 -0.13852224 0.060838573 0.037722226 -0.0057570706 0.018498952
-0.015366009 0.22473471 -0.029554725 -0.0333461 -0.103192516 -0.07820823 -0.062356062 0.0072329487
0.14346291 0.08288426 -0.12463405 -0.14629364 -0.075761184 -0.12370633 -0.03667245 0.08227983
0.027911954 -0.09893664 -0.05069609 -0.14880687 -0.011785856 -0.07295621 -0.07922669 0.011871894
0.025640005 -0.08792283 -0.021859415 0.09905526 -0.0068583507 0.031841006 -0.08011449 -0.14078663
0.033379942 0.051781222 0.18859354 0.13629219 -0.0052947234 0.0021530457 0.025940262 -0.11402738
-0.22319865 -0.11181875 -0.078720756 0.026959477 -0.062538356 0.006086245 0.06020318 0.15753365
0.025936766 0.056218196 0.06903147 0.08518211 0.025462981 0.10226543 0.03109585 -0.0044025686
0.060291898 -0.15343735 -0.050660476 -0.01749086 -0.05683113 0.0099468995 -0.060798742 -0.04752188
-0.04305963 -0.112505905 0.12262073 0.2011158 0.28998673 0.051905498 0.31030962 0.23139095
0.1458802 -0.032221764 -0.05002418 0.09465405 -0.21297193 -0.33028847 -0.07312725 -0.1333727
-0.048783444 -0.16545859 -0.17189305 -0.13033389 -0.1271519 0.104275316 -0.027635163 0.17839414
-0.05863862 -0.055991214 -0.1510644 -0.18113323 0.0015540497 0.26732033 0.04111996 -0.21366324
-0.15175088 -0.13193704 0.075164065 0.081568345 -0.021726534 -0.035170566 0.09000995 0.004225228
-0.035659242 -0.069244824 -0.23682532 -0.0866032 -0.09990154 0.08244548 -0.07318481 -0.02282963

conv1.bias f4 [16]
00000000: 559b 82be c03e 9a3f 9219 c3bf 1dee 58be
00000010: fd7b 7cbe 6894 70be 9b94 4cbf 0334 4cbe
00000020: 5244 bd3f e73c 4d3f 70a9 96bf 3960 1bbf
00000030: 94a3 933f d251 34bf f5c8 573d 748a 8fbf
-0.25509134 1.20504 -1.5242178 -0.21184583 -0.24656673 -0.23494112 -0.79914254 -0.19941716
1.4786475 0.80171055 -1.1770458 -0.606937 1.1534295 -0.7043735 0.052681882 -1.1214128

conv2.weight f4 [16, 16, 1, 1]
00000000: 7b8a 0cbe 3fbe 85bd de01 9a3e d16a 703e
00000010: b67e 873e 2ec3 013f 36dd 733e 094d 8fbe
00000020: 1f46 a2be 395b 6dbe 8b90 463e 689b 243e
00000030: 97de 52be 5a08 cb3e 799d acbd 9a54 acbd
00000040: e98e 57be 39b7 05bf 489a 6d3e 73da c03e
00000050: 187e 83be 7320 dfbc 75ac c43d c65b 59be
00000060: 29f6 823e 1fa5 283e 0877 cebe 674d dd3e
00000070: 2e68 1d3e 4d79 ed3e e74b c6be 6370 0b3e
00000080: af11 093e eb4b 18bd 55d5 053e f44a d7bc
00000090: a0ff bd3e 74e9 8dbd 3736 46be 8fb6 afbd
000000a0: 1132 f0bd abb5 45be 4a81 cf3d 532c b43e
000000b0: 5b1e 1a3e ad8c 03bf 812b 693e 86fa 563e
000000c0: a370 8ebd 4268 f13e abfb 513e c206 e63e
000000d0: a604 163d 8433 f7bd 74ee 6fbe ba9d da3d
000000e0: 7d5c 08bd 1057 7cbe 980a bf3e a8cd a73e
000000f0: 57e6 2a3e 2830 4a3d 1fe5 8c3e e6c0 953d
00000100: 2e7a 593e cf87 99be 0ee8 fc3e 0ce0 a3bd
00000110: da30 cfbd dc16 133e c27b 4c3d bc5c 53be
00000120: 59aa ca3d cca3 753e b4ec 8fbe aafc 79bd
00000130: a635 763e 8381 c3be 0e6d 9b3d 5659 a5be
00000140: 5503 373f 2f2a a6bd 27b8 8ebe bd5c 8cbe
00000150: bcd3 613e c9be 8dbc 825d 5f3e b1f9 973e
00000160: df9c 02be b741 c33d 1b7f 79bd 44f8 553e
00000170: b0cb e43d 46f6 dd3c 182a c9bc 6574 753d
00000180: d276 ad3e 5366 25be e974 84be a953 663e
00000190: 1968 9fbd aeba fe3d ad98 2ebf 121d 94bd
000001a0: 27b3 69bd dac3 3b3e f141 19be 7121 4cbd
000001b0: 5cb9 fd3e ebfe a93e 84ce 1a3e 4a0a bdbe
000001c0: 47fb 81bd 51e7 1d3e e789 193c 2029 0e3f
000001d0: 1481 e6be 0a53 f33d 347d ba3d 07be cbbe
000001e0: c997 aa3e dc4c c5bd ff6c cabd f115 b9bd
000001f0: 3458 cd3e 271c 47be 7a19 11be da38 b43e
00000200: a0fd 56be 5e97 f5bd 01ac 97be 8810 d1be
00000210: 540e 863e 4978 ed3e 5478 16bd f574 9bbe
00000220: f2ce 39be 3ad4 ccbd 3c48 8a3c 20bf 6bbd
00000230: d2ba 1e3e 9a8c 82be 02a2 df3e de55 6cbd
00000240: ca74 aa3a 417e 4c3f 8181 603d f07b 8cbd
00000250: 2c34 a13e 9935 0a3f 4009 a8be 1633 b4ba
00000260: 90ec c43d 0d60 53bc f326 20be ba57 083e
00000270: 0b5e 24bd 312f 35be fd25 d5be 37de 00be
00000280: c188 653d a3f9 ca3e df74 55be 745b cdbd
00000290: 6363 833e 762b dfbe 5370 8e3e 94f2 01be
000002a0: a1cc 3ebe 1d10 d2be cf06 87bd ee2e d7be
000002b0: 2e68 26be 56f8 103f 1235 5b3e 6920 e13c
000002c0: 3a24 193e 6fb9 cdbe f7f8 07be b25c e4be
000002d0: 167b 163d fb79 88bd 9a97 b6bc 9142 b2be
000002e0: 27b7 c33d 4eb4 2f3e fbee a2bc 4a2e d23e
000002f0: 4d21 573e cbd4 09be 4cb5 4fbe 6b22 d9be
00000300: 33a8 bebd 3482 c1be 5fd0 a63e 3d08 06bf
00000310: 1a55 523d 84f4 47be b25e 77be 4c92 03be
00000320: 2e68 85be a5fa f0be f41e 15bf 4dd0 de3d
00000330: 5b87 803f 72f2 32be d129 39be 0e7d 85be
00000340: 488b 43bd 7112 21bf 9b46 5abf b90a a4bc
00000350: 6d64 2b3e be2c 133c 7dbf b3bc b43e 4c3e
00000360: 7d5c 4a3e 2faa 18be 9230 57be 747a e63d
00000370: e69f a3be 1727 8abe 58fe 90be 9081 77be
00000380: 235b 0e3e cb8b f93d 8491 f5bd 8e55 bc3d
00000390: 59d9 c03d 50be c83e e461 f6bd df8d 88bd
000003a0: e5b0 3bbd 9667 4f3d cd33 80be 314b 8d3e
000003b0: 06dd 1b3e 3d32 dabe 2166 653e 3616 68be
000003c0: 8277 e03e c2e9 eabd 16a3 1a3e 2120 8abe
000003d0: 287f 16be eb24 2abf 4ef9 67bd 1c22 bbbe
000003e0: 30c7 6dbe 92c6 e2be 4435 dbbe 7aa3 c93c
000003f0: c23e 07bf 7ed3 95be 5d73 5bbe 222b 633d
-0.13724701 -0.06530427 0.3007955 0.23478247 0.2646386 0.50688446 0.23814854 -0.2798846
-0.31694123 -0.2317933 0.19391076 0.16074908 -0.20592724 0.3965481 -0.08428473 -0.08414574
-0.2105061 -0.522327 0.23203385 0.37666664 -0.2568214 -0.027237153 0.09603206 -0.21226415
0.2557843 0.16469239 -0.4032519 0.43223116 0.15371773 0.46381608 -0.38729784 0.13617091
0.13385652 -0.037181776 0.13069661 -0.026280858 0.3710909 -0.06929293 -0.19356619 -0.08579742
-0.117282994 -0.19307582 0.10132082 0.35190067 0.15050642 -0.5138653 0.22770502 0.20994005
-0.069550775 0.47149855 0.2050616 0.4492703 0.036625527 -0.12070373 -0.23430806 0.10674615
-0.03329133 -0.24642587 0.3731277 0.3277409 0.1668943 0.04936233 0.27518556 0.07312183
0.21238014 -0.29986426 0.49395794 -0.08001718 -0.101167396 0.14364189 0.049922712 -0.20640844
0.098957725 0.23988265 -0.28110278 -0.061031975 0.24043903 -0.38184747 0.0758916 -0.3229472
0.7148946 -0.08113515 -0.27874872 -0.27414504 0.22053427 -0.017302888 0.21813014 0.29682687
-0.12755154 0.095340185 -0.060912233 0.20895487 0.11171663 0.027094971 -0.024556205 0.059925456
0.33879715 -0.16152315 -0.25870445 0.22492851 -0.07783527 0.1243795 -0.68201715 -0.07232107
-0.05705562 0.1833643 -0.14966561 -0.04983658 0.4955548 0.332023 0.15117842 -0.36921912
-0.063467555 0.15420271 0.009371257 0.555315 -0.45020354 0.11881073 0.09105912 -0.39793417
0.33318928 -0.096338004 -0.098840706 -0.09037388 0.40106356 -0.19444333 -0.14169875 0.35199624
-0.20995188 -0.119917616 -0.29623416 -0.40832925 0.26182806 0.46380833 -0.036735848 -0.3036267
-0.1814535 -0.100014165 0.016880147 -0.057555318 0.15500954 -0.25497895 0.4367829 -0.057699077
0.0013004777 0.7988015 0.054811005 -0.06859577 0.31485116 0.53988034 -0.32819557 -0.0013748135
0.09615433 -0.012901318 -0.15639858 0.13314715 -0.04012875 -0.17693783 -0.41630545 -0.12584768
0.05603862 0.39643583 -0.20845364 -0.10027209 0.25661764 -0.43587846 0.27820072 -0.12690192
-0.18632747 -0.41027918 -0.065930955 -0.42027992 -0.16250679 0.5662893 0.21406963 0.027481275
0.14955226 -0.40180537 -0.13278566 -0.4460197 0.036738478 -0.06663891 -0.022289086 -0.3481641
0.09556418 0.17158625 -0.019889345 0.4105094 0.21008797 -0.1346008 -0.20284003 -0.4240907
-0.09309425 -0.3779465 0.3258085 -0.5235632 0.05135069 -0.19526869 -0.24157217 -0.12848777
-0.26056045 -0.47066227 -0.58250356 0.10879574 1.0041307 -0.17475298 -0.18082358 -0.26071972
-0.04774025 -0.62918764 -0.85263985 -0.020024644 0.16737528 0.008982835 -0.021941895 0.19945794
0.19761844 -0.1490867 -0.21014622 0.11253825 -0.3195793 -0.26982948 -0.2831905 -0.24170518
0.13901953 0.121848665 -0.119906455 0.09196006 0.09416456 0.39207697 -0.1203039 -0.06667685
-0.045822997 0.050635897 -0.2503952 0.2759643 0.15221033 -0.42616454 0.2240224 -0.22664723
0.43841177 -0.11470367 0.15101275 -0.26977637 -0.14696944 -0.6646258 -0.05663424 -0.3654946
-0.23220515 -0.44292122 -0.42814076 0.024614085 -0.52830136 -0.29262918 -0.21430726 0.055461057

conv2.bias f4 [16]
00000000: bdbf 10c0 8f20 a2be eb9d 38bf 4592 9b3d
00000010: b00d e0be 74ca a9bd beed e7be 2e92 c83f
00000020: 665c 8e3e 5b81 133f 158d 1e3f e0ab 713f
00000030: 1d4f 6c3f 6d7a 3dbe f7be e53f 71dc ac3e
-2.2617028 -0.31665465 -0.72115964 0.07596258 -0.43760443 -0.08290568 -0.4529857 1.566961
0.2780487 0.57619256 0.61934024 0.94402885 0.9230822 -0.18503733 1.7948903 0.33761933

conv3.weight f4 [16, 16, 1, 1]
00000000: b52c b6be 4af6 163d 1702 253e 7005 533d
00000010: d9e5 46c0 179e 793e 26c6 f9be 8dec fbbe
00000020: 03bf 593e 8526 773e e1e4 073e cc53 2ac0
00000030: 5cee 0b3e d115 6bbf 9f7c 39bf 5788 fdbe
00000040: e49d 76bb a983 4abe 8cff 38bd 951f 3fbe
00000050: bedd 3abf 18ae 283e 834e 453e fbd2 173f
00000060: 55fe 6bbe f65e 16be 2a59 abbe a8ec 193e
00000070: aad5 d8bd 27c9 973d ed94 f03e 83ec 923c
00000080: a726 a23e 2af9 913e 4a16 f2bc 70d1 d13d
00000090: fb30 a23e 8c9b 42be 3b82 163e 7240 a9be
000000a0: c398 cd3d 6e69 f33b fbc4 9f3e 5b72 68bf
000000b0: 73a1 883e 9d3a f7bd c53f b33e 6ad1 ef3d
000000c0: 7147 7c3e 9e36 223f 7c3f 1d3e c64e 89be
000000d0: 137c f5bd fc38 173e dab3 553f 66a3 c3be
000000e0: a9b4 853e e267 353e bf41 84be 0a96 6cbf
000000f0: 4ba4 67bc d181 e43e 3e04 4ebe d20b 573d
00000100: 1ced 923d 69d8 a2c0 2142 f3bd c57a a93e
00000110: 8f68 1cbf e1ba 1d3e 5bbc 40bf 2c75 bf3e
00000120: cfd8 2f3d 3b20 85be 8df5 173e d624 a13e
00000130: 8028 94bd 2a30 eb3d cd97 633e 5694 b5be
00000140: 1235 df3e f244 d93d 1570 aa3d 7fbb 863e
00000150: 5c3a 373e 44d9 9c3d f22b 013f df5c 7dbf
00000160: 7c7c 98bd f88b 3b3f 2898 9d3d 48e5 073f
00000170: bc9d 0ebf 04cd 793e e772 63bf bea4 343e
00000180: 8e6a d3be b562 c73f 73af eabe 82ac fe3d
00000190: cb4b e8bf 96fb 873e 3158 c63e d6df 003e
000001a0: 7c59 8d3e 9205 3f3e b55a 1dbe 6a4b 38c0
000001b0: 24b8 2b3e 82d2 edbd fc60 df3e e501 09bf
000001c0: 9ead 12bf f207 1d3f ac31 01bf a84f f0be
000001d0: 2f2d 213e a611 3abe ad21 0fbe 6714 283f
000001e0: 328b 87bf d217 093f 2ac0 383e 4553 9f3e
000001f0: 5dbd 42be 1e2a 1d3f 231c 5a3f 2007 6fbe
00000200: 0ce9 e73d b7cb 36bf 5450 53bd c3b0 f7bd
00000210: 7927 dfbe 9373 453e f2a8 84be d6f3 6f3f
00000220: 4e97 7abe e466 0bbf ac1a efbd 98b1 b53e
00000230: 963c c33e fd29 42be 618a f1bc 1f08 d83d
00000240: b758 17bc 8327 85c0 a4fc 41bd ee44 6c3e
00000250: c8fe 79be 03de 24be 65a9 273f db41 403f
00000260: 4244 3c3b 1d11 11bf a054 923e 2e36 98bf
00000270: 80df f9bd d057 e2bf adc1 483f b30b 7e3e
00000280: 8a07 82be 2d88 5b3e c829 543e ad24 89be
00000290: 1658 cf3e 359e c93e 5910 51c0 57dd bcbe
000002a0: 6f8f 0abe c0e4 123d 6175 883d bb33 bdbe
000002b0: 7756 48bd 5f13 923e d226 46be ec83 133e
000002c0: 9e53 5b3e 47a5 9c3e 2cb2 303e 7955 9abe
000002d0: 3def e7bc 8e3f 0fbd 6176 2f3e deca 3fbf
000002e0: 916d 87bd 7b03 173c b681 94be 5976 71be
000002f0: 161f bc3e 3b9a 1a3f 58b0 08bf 33d1 ab3e
00000300: a67a 2c3e 5ddb be3d 73ec ba3e b003 8f3d
00000310: 9dac e3bd b4f9 4f3e 7d66 003f b9e5 5abf
00000320: 7054 103e 8d04 8bbe 47cf 6dbe 9fe9 16bf
00000330: e7a8 763e 9fdc 1a3d 63bc a23d 1bde 6e3d
00000340: 0d47 febe 5c13 063e 809d 7dbf 5922 d33d
00000350: d424 05c0 b3e8 21bf 70b7 8f3d 162d de3e
00000360: e767 21be 0102 d23d 0772 153e 912b 0140
00000370: b9c8 dbbf 8d56 9f3e 0507 1a3f 8709 943f
00000380: aa9e 5bbe 98a7 363e 8972 29be 660c 45bd
00000390: 34e2 2abe 7f6a 73be da87 31bf 8ad5 4a3e
000003a0: c1ed 233e cc65 cc3c 5c08 e33d 7aa1 b33e
000003b0: f183 e13e 4070 d1bf ff90 253f 6a6e 873e
000003c0: 95a5 843d 4088 febe 1fc4 563e 83b2 a63e
000003d0: 9fd5 20be 89f3 efbe ba69 3cbf 1577 153f
000003e0: 2024 02bf 5d95 2cbf 311a 08be d7a1 4bbf
000003f0: f24c b5bc de8b 6bc0 e719 7a3e 8b51 7e3e
-0.35580984 0.036855973 0.16114078 0.051518857 -3.1077788 0.24376713 -0.48783988 -0.4920391
0.21264271 0.24135788 0.13270904 -2.6613646 0.13665146 -0.91830164 -0.7245578 -0.49518082
-0.0037630731 -0.19776787 -0.045165583 -0.18664391 -0.729946 0.16472661 0.19268231 0.59306306
-0.23046239 -0.14684662 -0.33466464 0.15031683 -0.10587628 0.07411414 0.4698862 0.017935043
0.31670114 0.2851041 -0.029551644 0.10245025 0.31677994 -0.19004649 0.14698116 -0.3305698
0.100389026 0.0074283397 0.31204972 -0.9079949 0.26685676 -0.120717265 0.3500959 0.117098644
0.24636628 0.6336459 0.15356249 -0.26817912 -0.11986556 0.14767832 0.83477557 -0.382106
0.26114395 0.1771541 -0.2583141 -0.9241644 -0.014138292 0.44630292 -0.20118806 0.052501507
0.07174131 -5.0889173 -0.118778475 0.33101478 -0.61097044 0.1540332 -0.7528741 0.37394083
0.042931374 -0.26001152 0.14839764 0.31473416 -0.07234287 0.11483796 0.22225876 -0.35464734
0.43595177 0.106088534 0.08322159 0.26314923 0.17893356 0.07658628 0.5045768 -0.98969835
-0.074456185 0.7326045 0.07695037 0.5308423 -0.55709434 0.24394614 -0.888472 0.17640969
-0.41292232 1.5576998 -0.45836982 0.12435247 -1.814813 0.26559132 0.3873916 0.12585387
0.27607334 0.18654469 -0.15366633 -2.879603 0.16769463 -0.11612417 0.4362868 -0.53518516
-0.5729617 0.6134025 -0.5046642 -0.46935773 0.15739892 -0.18170795 -0.1397769 0.6565613
-1.0589354 0.5355197 0.18042055 0.31118217 -0.19017549 0.6139239 0.85199183 -0.23342562
0.11323747 -0.71404594 -0.05159028 -0.120942615 -0.43584803 0.1928237 -0.25910145 0.9373144
-0.2447178 -0.54453874 -0.11675009 0.35487056 0.3813216 -0.1896133 -0.02948493 0.10548424
-0.00923746 -4.161073 -0.047360078 0.2307317 -0.24413598 -0.16100316 0.6549285 0.7510049
0.0028727208 -0.5666674 0.2858019 -1.1891534 -0.12200832 -1.7683048 0.78420526 0.2480915
-0.25396377 0.21438666 0.20719063 -0.26785794 0.40496892 0.39378515 -3.2666228 -0.3688762
-0.13531278 0.035862684 0.06663013 -0.3695353 -0.048910584 0.28530404 -0.19350746 0.14405793
0.21418616 0.30594847 0.17255467 -0.30143335 -0.02831232 -0.03497272 0.17135002 -0.74918926
-0.06612695 0.009217138 -0.29005212 -0.23580302 0.36742467 0.60391587 -0.5339408 0.33558044
0.16843662 0.09319184 0.3650852 0.06983125 -0.11116908 0.20310098 0.50156385 -0.8550678
0.1409471 -0.2715191 -0.23223601 -0.5895023 0.24087869 0.037808057 0.07946088 0.058317285
-0.49663582 0.13093323 -0.9906845 0.10309286 -2.0803728 -0.63245696 0.0701741 0.43393773
-0.15762292 0.102542885 0.14594279 2.018284 -1.7170631 0.3112072 0.6016696 1.1565408
-0.21447244 0.1783737 -0.16547598 -0.048107527 -0.16687852 -0.23771094 -0.6934792 0.19808021
0.16008665 0.024950884 0.11085579 0.35084134 0.44045976 -1.6362381 0.6467437 0.26451427
0.06476895 -0.49713326 0.20973252 0.3255807 -0.1570649 -0.4686549 -0.73598826 0.5838483
-0.5083637 -0.6741541 -0.13291241 -0.79543823 -0.022131417 -3.6804118 0.24423943 0.24835794

conv3.bias f4 [16]
00000000: 4847 db3f 699c 2240 c305 1bbe df3e 14c0
00000010: e59e c9bf 7beb 933f 0a80 1c3f 08d2 86be
00000020: df2d 1dbf d38e cebf 8aa4 193f 1740 12bf
00000030: a07f 48be d634 0840 3c80 c33f adb1 b13e
1.7131128 2.5407965 -0.15138917 -2.3163373 -1.5751616 1.1556238 0.6113287 -0.26332116
-0.6139812 -1.6137336 0.6001669 -0.57129043 -0.19579935 2.1282248 1.5273509 0.34705868

conv4.weight f4 [16, 16, 1, 1]
00000000: 1b9f ec3a a444 cf3e 7f86 6e3d be57 093e
00000010: 9c39 88bc 7b3f 723e 4b22 cabd 3c0b a23d
00000020: d3c5 7bbe cfcb 093d 5d72 6dbd cf94 8b3e
00000030: 283f 1d3d a805 9b3d 31c7 79be 58dd 9d3d
00000040: 560b 4f3e 261f 193d 058e 583e 6664 80be
00000050: f62a 35be 0e88 c8bd 4a85 46be 0a2c 5bbe
00000060: 5987 debe bd26 88bd 1469 42bd fa31 633e
00000070: 2b38 053e cd4b b1bf ac43 bc3b 6982 ae3d
00000080: 0cf2 203f 95a7 ca3e 4b45 e5bd e597 c43d
00000090: 34a9 13be 44a0 783e 7d9a 00bf a93f a73d
000000a0: c01e c7bf 8b98 1fbd ff1b c73d 2305 b33d
000000b0: 01f8 4b3e 113e d4bf 964d 18be 4a7d 18bf
000000c0: 28d4 453e 12e5 b2bf 530f af3d 496f 2fbe
000000d0: 58e2 fcbc 730a fc3d e779 e93e fff7 a0bf
000000e0: 809c c53e 0bf5 de3c 8a8b 47be bf38 213d
000000f0: fe25 3dbc caa6 3bbd 8666 3a3e d7fa 28bf
00000100: 1e16 673e a5a2 2f3f f483 6d3e bbb7 6f3d
00000110: 72ea 193d 99db 9e3e 0d9b cabe e4cd 24be
00000120: 0b2a b0be afbe 03be b22d 17be d516 223e
00000130: f953 883c 958f 52be 85c4 c5bc 7bf1 573e
00000140: acf5 423f 3121 e13e 2e87 a73e 3659 dbbc
00000150: 7bb8 0ebe 5249 65be f39b 45bf 7dfd 12be
00000160: fd88 8cbb 886b 89be 5fcb c93d 7912 083e
00000170: e7e6 78be cc33 e5bf 8ef5 e53e 23c5 5d3d
00000180: e9d2 893f 5391 7a3f fd14 8a3b 10cb cc3d
00000190: f484 65be 7477 a6be 2cf9 da3d 321e cabd
000001a0: 2748 0f3f b086 3fbe c13c dd3e 0f87 5c3d
000001b0: 4230 843e ea92 70be 76b8 393e 2eba 29bf
000001c0: 0d6f 213e 9cc2 e33e 100f b03e c321 06be
000001d0: 69ab a4bd 3487 593e 60b9 96be d1ef 5b3f
000001e0: dd95 25be 4fa2 4e3e c2d8 1dbf d00f 7abd
000001f0: 654e c7bd 4be7 ccbe bd96 89be 7658 163e
00000200: 4d4c 423f 04cf a7bd 6e7f 803d 2059 1cbf
00000210: 01af edbc d138 773e 0b6b db3e b073 7cbf
00000220: dbb6 683e b62a d5bd c889 86be c4f5 97be
00000230: c308 42be af7c 823e 5f22 fd3e bbdc b43e
00000240: 8b01 00be 3f79 35bf 4a9c e13d 7d61 403d
00000250: eb98 9e3e ea77 82bd 9740 343e d0a5 1dc0
00000260: df6b 103e bdf6 c73d 356f 53be 5398 f23d
00000270: 7c14 483e 86c5 933e 72fa c73b 0a2a 17be
00000280: f9b9 ff3e 270c d53e 32f7 41be 9843 083e
00000290: 5a69 8bbf d672 ad3d 19a1 093f f2ea a1bf
000002a0: 8fdd e6bd 4bde 583e 384f 643e 5662 993e
000002b0: 0d34 f43d 437d 72c0 d3a6 d2be a99b 093f
000002c0: 0da1 b93f 37c7 a2c0 0ab4 debd 9af9 053e
000002d0: 299f b5bd a652 cabe a137 653f 938d 0cbe
000002e0: cc52 63bd e8ea 85be bcb2 bdbe 61f1 973d
000002f0: 85b4 993d 056a bf3e e1ae 0f3f 67db b4be
00000300: ae4c 373f 7f3c 28bf 55b9 3e3e 2e6f 7c3e
00000310: f3cb 0ebf 5991 18be fdfd 86be 537b 9f3e
00000320: 91b0 f5be 9232 30bf b704 b13e 610d 0a3d
00000330: c8f8 aa3e dd7a 693f d4ee 79be 5807 8dbf
00000340: 82d3 b8be 366d 0fbf 299c 02be e8f3 003f
00000350: 08bd ea3d 71f2 bb3d 7687 803f 4934 023f
00000360: 53db 103f 8979 e2be 700e 0c3a 3421 8ebb
00000370: dd6e 7d3e 2d13 373f c474 053f 6345 62be
00000380: 6e8d 1b3f 0a9b 0bbf 0b17 ddbc 8540 efbd
00000390: 3534 733d 7066 a0be 1a34 3c3f e9c5 58be
000003a0: 0305 143c 5283 083e 24d2 4d3d c42c 20be
000003b0: 8b6a b73d 936e 393f 8711 f53e f50c 1a3f
000003c0: 4c86 2fbf 0231 163f 8a0d cfbe 05ef 66bd
000003d0: 3d1e 93bf d65c 333e 2af6 6a3f c884 20be
000003e0: f300 023f cb80 75bd edba 2abf a71f 4abe
000003f0: c02f f03d b824 5dbe 0b76 5b3f 88a8 40bf
0.0018052788 0.40482056 0.058233734 0.13412377 -0.016629033 0.23657028 -0.09869822 0.07912299
-0.24587183 0.033641633 -0.057970393 0.2726197 0.03839031 0.07569438 -0.24392392 0.077082336
0.20219168 0.03738322 0.21147926 -0.25076598 -0.1769217 -0.09791575 -0.19386783 -0.21403518
-0.43462637 -0.06648014 -0.04746349 0.22187033 0.13009708 -1.3851258 0.005745372 0.085209675
0.62869334 0.3958098 -0.11194857 0.09599284 -0.14420015 0.24279886 -0.5023573 0.08166439
-1.5556259 -0.038963836 0.09722137 0.08741214 0.19918825 -1.6581441 -0.14873347 -0.59566176
0.19319212 -1.3976157 0.08547845 -0.17132296 -0.030869648 0.123066805 0.45600817 -1.2575682
0.38595963 0.027216455 -0.19486824 0.039360758 -0.011544703 -0.04581336 0.18203172 -0.6600775
0.22567031 0.6860755 0.23194867 0.05852483 0.0375771 0.31026915 -0.3957142 -0.16094166
-0.34407076 -0.12865709 -0.14763525 0.15829022 0.016641604 -0.20562585 -0.02414156 0.21088211
0.76156116 0.43970636 0.3272032 -0.026775938 -0.13937561 -0.2239125 -0.77191085 -0.1435451
-0.004288791 -0.26839852 0.09853243 0.13288297 -0.24306832 -1.7906432 0.44913906 0.054143082
1.076749 0.97878 0.004213928 0.099996686 -0.22413999 -0.3251301 0.10692057 -0.098690405
0.5596947 -0.18703723 0.43210414 0.05383974 0.25818068 -0.23493543 0.18136773 -0.6629971
0.15765019 0.44484413 0.34386492 -0.13098817 -0.080405064 0.21242982 -0.29438305 0.85912806
-0.1617045 0.20179103 -0.6165887 -0.061050236 -0.097317494 -0.40020213 -0.26872817 0.14682183
0.75897676 -0.08193782 0.06274305 -0.61073494 -0.029014112 0.24142767 0.42855105 -0.98614025
0.22726004 -0.10408537 -0.26276994 -0.29679692 -0.18948655 0.2548575 0.49440286 0.35324654
-0.12500589 -0.7088813 0.11016138 0.046967972 0.30976042 -0.06370528 0.17602764 -2.4632454
0.1410365 0.097638585 -0.20647891 0.1184546 0.19539064 0.28861636 0.0061028535 -0.1476213
0.49946573 0.41610834 -0.18941954 0.13307035 -1.0891526 0.08469169 0.5376144 -1.2649825
-0.11272728 0.21178548 0.22295845 0.29957837 0.119239904 -3.7888954 -0.41142902 0.53753144
1.4502274 -5.086818 -0.108741835 0.13083497 -0.08868248 -0.3951618 0.8953801 -0.13725881
-0.055498883 -0.26155782 -0.37050426 0.07419086 0.075051345 0.37385574 0.5612622 -0.3532364
0.7160138 -0.6571731 0.18625386 0.24651787 -0.5577995 -0.14899196 -0.26365653 0.31148776
-0.47986272 -0.68827164 0.3457391 0.033704165 0.3339293 0.912031 -0.24407512 -1.1017866
-0.36098868 -0.5602602 -0.12754883 0.5037217 0.11461836 0.091771014 1.0041339 0.5086103
0.5658466 -0.4423335 0.00053427275 -0.004337454 0.24749322 0.71513635 0.52131295 -0.22096781
0.6076268 -0.54533446 -0.026988527 -0.11682228 0.05937596 -0.31328154 0.73517 -0.21169247
0.009034398 0.13331345 0.050249234 -0.15642077 0.08955868 0.7243435 0.47864935 0.6017602
-0.68564296 0.5866853 -0.40440017 -0.05638029 -1.1493603 0.17515883 0.91781867 -0.15675652
0.507827 -0.05993728 -0.66691476 -0.19738637 0.117278576 -0.21596038 0.85726994 -0.7525716

conv4.bias f4 [16]
00000000: 3973 c9be 41e8 a23d a52b 74be fb6a 793e
00000010: af2a 5cbe 4794 a03e dfb5 613f 8ec5 8b3c
00000020: 8304 bc3f 4c6f c0bd 1263 e13e 5338 6e3d
00000030: 2c44 c23e c9c1 0a3f 0869 45be f53d df3e
-0.3934572 0.07954455 -0.23844774 0.24357216 -0.21500657 0.31363127 0.8816814 0.017061975
1.4688877 -0.09396228 0.44020897 0.058159184 0.37942636 0.5420194 -0.19278347 0.43601957

conv5.weight f4 [1, 16, 1, 1]
00000000: e5e7 37be a838 32be 34e3 bebe 52f5 573e
00000010: 6d52 6abe 63a6 cabe 55cf e5be 101d 91be
00000020: e705 293f 18d8 2b3e 4680 19bf 358d ee3e
00000030: e44e 2dbf edac 033f 0445 f4bd 05a8 2cbf
-0.17959554 -0.17404425 -0.37282717 0.21089676 -0.22883005 -0.39580068 -0.44884744 -0.28342485
0.6602463 0.16781652 -0.59961355 0.46592107 -0.676985 0.5143574 -0.11927226 -0.6744388
